…
ionInfo":{"status":"ok","timestamp":1681953056055,"user_tz":-420,"elapsed":147179,"user":{"displayName":"Phúc Nguyễn Ngọc","userId":"08603269780001331701"}},"outputId":"6e64cb79-7b5e-425d-8fbc-dccece240382","colab":{"base_uri":"https://localhost:8080/"}},"execution_count":3,"outputs":[{"output_type":"stream","name":"stdout","text":["Model: \"sequential\"\n","_________________________________________________________________\n"," Layer (type)                Output Shape              Param #   \n","=================================================================\n"," conv2d (Conv2D)             (None, 28, 28, 32)        320       \n","                                                                 \n"," leaky_re_lu (LeakyReLU)     (None, 28, 28, 32)        0         \n","                                                                 \n"," max_pooling2d (MaxPooling2D  (None, 14, 14, 32)       0         \n"," )                                                               \n","                                                                 \n"," conv2d_1 (Conv2D)           (None, 14, 14, 64)        18496     \n","                                                                 \n"," leaky_re_lu_1 (LeakyReLU)   (None, 14, 14, 64)        0         \n","                                                                 \n"," max_pooling2d_1 (MaxPooling  (None, 7, 7, 64)         0         \n"," 2D)                                                             \n","                                                                 \n"," conv2d_2 (Conv2D)           (None, 7, 7, 128)         73856     \n","                                                                 \n"," leaky_re_lu_2 (LeakyReLU)   (None, 7, 7, 128)         0         \n","                                                                 \n"," max_pooling2d_2 (MaxPooling  (None, 4, 4, 128)        0         \n"," 2D)                                                             \n","                                                                 \n"," flatten (Flatten)           (None, 2048)              0         \n","                                                                 \n"," dense (Dense)               (None, 128)               262272    \n","                                                                 \n"," leaky_re_lu_3 (LeakyReLU)   (None, 128)               0         \n","                                                                 \n"," dense_1 (Dense)             (None, 10)                1290      \n","                                                                 \n","=================================================================\n","Total params: 356,234\n","Trainable params: 356,234\n","Non-trainable params: 0\n","_________________________________________________________________\n","Epoch 1/20\n","938/938 [==============================] - 14s 5ms/step - loss: 0.4415 - accurac
…
